…
classes= ['bird', 'cat', 'deer', 'dog', 'frog', 'horse']
Making trained directory...
Reading path of dataset ... Start
Reading path of dataset ... End
Loading dataset in Array ... Start
Loading dataset in Array ... End
Loading dataset in Array ... Start
Loading dataset in Array ... End
Model: "functional_1"
__________________________________________________________________________________________________
Layer (type)                    Output Shape         Param #     Connected to                     
==================================================================================================
input_1 (InputLayer)            [(None, 224, 224, 3) 0                                            
__________________________________________________________________________________________________
conv2d (Conv2D)                 (None, 112, 112, 64) 9472        input_1[0][0]                    
__________________________________________________________________________________________________
max_pooling2d (MaxPooling2D)    (None, 56, 56, 64)   0           conv2d[0][0]                     
__________________________________________________________________________________________________
conv2d_1 (Conv2D)               (None, 56, 56, 64)   4160        max_pooling2d[0][0]              
__________________________________________________________________________________________________
batch_normalization (BatchNorma (None, 56, 56, 64)   256         conv2d_1[0][0]                   
__________________________________________________________________________________________________
activation (Activation)         (None, 56, 56, 64)   0           batch_normalization[0][0]        
__________________________________________________________________________________________________
conv2d_2 (Conv2D)               (None, 56, 56, 64)   36928       activation[0][0]                 
__________________________________________________________________________________________________
batch_normalization_1 (BatchNor (None, 56, 56, 64)   256         conv2d_2[0][0]                   
__________________________________________________________________________________________________
activation_1 (Activation)       (None, 56, 56, 64)   0           batch_normalization_1[0][0]      
__________________________________________________________________________________________________
conv2d_3 (Conv2D)               (None, 56, 56, 256)  147712      activation_1[0][0]               
__________________________________________________________________________________________________
batch_normalization_2 (BatchNor (None, 56, 56, 256)  1024        conv2d_3[0][0]                   
__________________________________________________________________________________________________
conv2d_4 (Conv2D)               (None, 56, 56, 256)  16640       max_pooling2d[0][0]              
__________________________________________________________________________________________________
add (Add)                       (None, 56, 56, 256)  0           batch_normalization_2[0][0]      
                                                                 conv2d_4[0][0]                   
__________________________________________________________________________________________________
activation_2 (Activation)       (None, 56, 56, 256)  0           add[0][0]                        
__________________________________________________________________________________________________
conv2d_5 (Conv2D)               (None, 56, 56, 64)   16448       activation_2[0][0]               
__________________________________________________________________________________________________
batch_normalization_3 (BatchNor (None, 56, 56, 64)   256         conv2d_5[0][0]                   
__________________________________________________________________________________________________
activation_3 (Activation)       (None, 56, 56, 64)   0           batch_normalization_3[0][0]      
__________________________________________________________________________________________________
conv2d_6 (Conv2D)               (None, 56, 56, 64)   36928       activation_3[0][0]               
__________________________________________________________________________________________________
batch_normalization_4 (BatchNor (None, 56, 56, 64)   256         conv2d_6[0][0]                   
__________________________________________________________________________________________________
activation_4 (Activation)       (None, 56, 56, 64)   0           batch_normalization_4[0][0]      
__________________________________________________________________________________________________
conv2d_7 (Conv2D)               (None, 56, 56, 256)  147712      activation_4[0][0]               
__________________________________________________________________________________________________
batch_normalization_5 (BatchNor (None, 56, 56, 256)  1024        conv2d_7[0][0]                   
__________________________________________________________________________________________________
add_1 (Add)                     (None, 56, 56, 256)  0           batch_normalization_5[0][0]      
                                                                 activation_2[0][0]               
__________________________________________________________________________________________________
activation_5 (Activation)       (None, 56, 56, 256)  0           add_1[0][0]                      
__________________________________________________________________________________________________
conv2d_8 (Conv2D)               (None, 56, 56, 64)   16448       activation_5[0][0]               
__________________________________________________________________________________________________
batch_normalization_6 (BatchNor (None, 56, 56, 64)   256         conv2d_8[0][0]                   
__________________________________________________________________________________________________
activation_6 (Activation)       (None, 56, 56, 64)   0           batch_normalization_6[0][0]      
__________________________________________________________________________________________________
conv2d_9 (Conv2D)               (None, 56, 56, 64)   36928       activation_6[0][0]               
__________________________________________________________________________________________________
batch_normalization_7 (BatchNor (None, 56, 56, 64)   256         conv2d_9[0][0]                   
__________________________________________________________________________________________________
activation_7 (Activation)       (None, 56, 56, 64)   0           batch_normalization_7[0][0]      
__________________________________________________________________________________________________
conv2d_10 (Conv2D)              (None, 56, 56, 256)  147712      activation_7[0][0]               
__________________________________________________________________________________________________
batch_normalization_8 (BatchNor (None, 56, 56, 256)  1024        conv2d_10[0][0]                  
__________________________________________________________________________________________________
add_2 (Add)                     (None, 56, 56, 256)  0           batch_normalization_8[0][0]      
                                                                 activation_5[0][0]               
__________________________________________________________________________________________________
activation_8 (Activation)       (None, 56, 56, 256)  0           add_2[0][0]                      
__________________________________________________________________________________________________
conv2d_11 (Conv2D)              (None, 28, 28, 128)  32896       activation_8[0][0]               
__________________________________________________________________________________________________
batch_normalization_9 (BatchNor (None, 28, 28, 128)  512         conv2d_11[0][0]                  
__________________________________________________________________________________________________
activation_9 (Activation)       (None, 28, 28, 128)  0           batch_normalization_9[0][0]      
__________________________________________________________________________________________________
conv2d_12 (Conv2D)              (None, 28, 28, 128)  147584      activation_9[0][0]               
__________________________________________________________________________________________________
batch_normalization_10 (BatchNo (None, 28, 28, 128)  512         conv2d_12[0][0]                  
__________________________________________________________________________________________________
activation_10 (Activation)      (None, 28, 28, 128)  0           batch_normalization_10[0][0]     
__________________________________________________________________________________________________
conv2d_13 (Conv2D)              (None, 28, 28, 512)  590336      activation_10[0][0]              
__________________________________________________________________________________________________
batch_normalization_11 (BatchNo (None, 28, 28, 512)  2048        conv2d_13[0][0]                  
__________________________________________________________________________________________________
conv2d_14 (Conv2D)              (None, 28, 28, 512)  131584      activation_8[0][0]               
__________________________________________________________________________________________________
add_3 (Add)                     (None, 28, 28, 512)  0           batch_normalization_11[0][0]     
                                                                 conv2d_14[0][0]                  
__________________________________________________________________________________________________
activation_11 (Activation)      (None, 28, 28, 512)  0           add_3[0][0]                      
__________________________________________________________________________________________________
conv2d_15 (Conv2D)              (None, 28, 28, 128)  65664       activation_11[0][0]              
__________________________________________________________________________________________________
batch_normalization_12 (BatchNo (None, 28, 28, 128)  512         conv2d_15[0][0]                  
__________________________________________________________________________________________________
activation_12 (Activation)      (None, 28, 28, 128)  0           batch_normalization_12[0][0]     
__________________________________________________________________________________________________
conv2d_16 (Conv2D)              (None, 28, 28, 128)  147584      activation_12[0][0]              
__________________________________________________________________________________________________
batch_normalization_13 (BatchNo (None, 28, 28, 128)  512         conv2d_16[0][0]                  
__________________________________________________________________________________________________
activation_13 (Activation)      (None, 28, 28, 128)  0           batch_normalization_13[0][0]     
__________________________________________________________________________________________________
conv2d_17 (Conv2D)              (None, 28, 28, 512)  590336      activation_13[0][0]              
__________________________________________________________________________________________________
batch_normalization_14 (BatchNo (None, 28, 28, 512)  2048        conv2d_17[0][0]                  
__________________________________________________________________________________________________
add_4 (Add)                     (None, 28, 28, 512)  0           batch_normalization_14[0][0]     
                                                                 activation_11[0][0]              
__________________________________________________________________________________________________
activation_14 (Activation)      (None, 28, 28, 512)  0           add_4[0][0]                      
__________________________________________________________________________________________________
conv2d_18 (Conv2D)              (None, 28, 28, 128)  65664       activation_14[0][0]              
__________________________________________________________________________________________________
batch_normalization_15 (BatchNo (None, 28, 28, 128)  512         conv2d_18[0][0]                  
__________________________________________________________________________________________________
activation_15 (Activation)      (None, 28, 28, 128)  0           batch_normalization_15[0][0]     
__________________________________________________________________________________________________
conv2d_19 (Conv2D)              (None, 28, 28, 128)  147584      activation_15[0][0]              
__________________________________________________________________________________________________
batch_normalization_16 (BatchNo (None, 28, 28, 128)  512         conv2d_19[0][0]                  
__________________________________________________________________________________________________
activation_16 (Activation)      (None, 28, 28, 128)  0           batch_normalization_16[0][0]     
__________________________________________________________________________________________________
conv2d_20 (Conv2D)              (None, 28, 28, 512)  590336      activation_16[0][0]              
__________________________________________________________________________________________________
batch_normalization_17 (BatchNo (None, 28, 28, 512)  2048        conv2d_20[0][0]                  
__________________________________________________________________________________________________
add_5 (Add)                     (None, 28, 28, 512)  0           batch_normalization_17[0][0]     
                                                                 activation_14[0][0]              
__________________________________________________________________________________________________
activation_17 (Activation)      (None, 28, 28, 512)  0           add_5[0][0]                      
__________________________________________________________________________________________________
conv2d_21 (Conv2D)              (None, 28, 28, 128)  65664       activation_17[0][0]              
__________________________________________________________________________________________________
batch_normalization_18 (BatchNo (None, 28, 28, 128)  512         conv2d_21[0][0]                  
__________________________________________________________________________________________________
activation_18 (Activation)      (None, 28, 28, 128)  0           batch_normalization_18[0][0]     
__________________________________________________________________________________________________
conv2d_22 (Conv2D)              (None, 28, 28, 128)  147584      activation_18[0][0]              
__________________________________________________________________________________________________
batch_normalization_19 (BatchNo (None, 28, 28, 128)  512         conv2d_22[0][0]                  
__________________________________________________________________________________________________
activation_19 (Activation)      (None, 28, 28, 128)  0           batch_normalization_19[0][0]     
__________________________________________________________________________________________________
conv2d_23 (Conv2D)              (None, 28, 28, 512)  590336      activation_19[0][0]              
__________________________________________________________________________________________________
batch_normalization_20 (BatchNo (None, 28, 28, 512)  2048        conv2d_23[0][0]                  
__________________________________________________________________________________________________
add_6 (Add)                     (None, 28, 28, 512)  0           batch_normalization_20[0][0]     
                                                                 activation_17[0][0]              
__________________________________________________________________________________________________
activation_20 (Activation)      (None, 28, 28, 512)  0           add_6[0][0]                      
__________________________________________________________________________________________________
conv2d_24 (Conv2D)              (None, 14, 14, 256)  131328      activation_20[0][0]              
__________________________________________________________________________________________________
batch_normalization_21 (BatchNo (None, 14, 14, 256)  1024        conv2d_24[0][0]                  
__________________________________________________________________________________________________
activation_21 (Activation)      (None, 14, 14, 256)  0           batch_normalization_21[0][0]     
__________________________________________________________________________________________________
conv2d_25 (Conv2D)              (None, 14, 14, 256)  590080      activation_21[0][0]              
__________________________________________________________________________________________________
batch_normalization_22 (BatchNo (None, 14, 14, 256)  1024        conv2d_25[0][0]                  
__________________________________________________________________________________________________
activation_22 (Activation)      (None, 14, 14, 256)  0           batch_normalization_22[0][0]     
__________________________________________________________________________________________________
conv2d_26 (Conv2D)              (None, 14, 14, 1024) 2360320     activation_22[0][0]              
__________________________________________________________________________________________________
batch_normalization_23 (BatchNo (None, 14, 14, 1024) 4096        conv2d_26[0][0]                  
__________________________________________________________________________________________________
conv2d_27 (Conv2D)              (None, 14, 14, 1024) 525312      activation_20[0][0]              
__________________________________________________________________________________________________
add_7 (Add)                     (None, 14, 14, 1024) 0           batch_normalization_23[0][0]     
                                                                 conv2d_27[0][0]                  
__________________________________________________________________________________________________
activation_23 (Activation)      (None, 14, 14, 1024) 0           add_7[0][0]                      
__________________________________________________________________________________________________
conv2d_28 (Conv2D)              (None, 14, 14, 256)  262400      activation_23[0][0]              
__________________________________________________________________________________________________
batch_normalization_24 (BatchNo (None, 14, 14, 256)  1024        conv2d_28[0][0]                  
__________________________________________________________________________________________________
activation_24 (Activation)      (None, 14, 14, 256)  0           batch_normalization_24[0][0]     
__________________________________________________________________________________________________
conv2d_29 (Conv2D)              (None, 14, 14, 256)  590080      activation_24[0][0]              
__________________________________________________________________________________________________
batch_normalization_25 (BatchNo (None, 14, 14, 256)  1024        conv2d_29[0][0]                  
__________________________________________________________________________________________________
activation_25 (Activation)      (None, 14, 14, 256)  0           batch_normalization_25[0][0]     
__________________________________________________________________________________________________
conv2d_30 (Conv2D)              (None, 14, 14, 1024) 2360320     activation_25[0][0]              
__________________________________________________________________________________________________
batch_normalization_26 (BatchNo (None, 14, 14, 1024) 4096        conv2d_30[0][0]                  
__________________________________________________________________________________________________
add_8 (Add)                     (None, 14, 14, 1024) 0           batch_normalization_26[0][0]     
                                                                 activation_23[0][0]              
__________________________________________________________________________________________________
activation_26 (Activation)      (None, 14, 14, 1024) 0           add_8[0][0]                      
__________________________________________________________________________________________________
conv2d_31 (Conv2D)              (None, 14, 14, 256)  262400      activation_26[0][0]              
__________________________________________________________________________________________________
batch_normalization_27 (BatchNo (None, 14, 14, 256)  1024        conv2d_31[0][0]                  
__________________________________________________________________________________________________
activation_27 (Activation)      (None, 14, 14, 256)  0           batch_normalization_27[0][0]     
__________________________________________________________________________________________________
conv2d_32 (Conv2D)              (None, 14, 14, 256)  590080      activation_27[0][0]              
__________________________________________________________________________________________________
batch_normalization_28 (BatchNo (None, 14, 14, 256)  1024        conv2d_32[0][0]                  
__________________________________________________________________________________________________
activation_28 (Activation)      (None, 14, 14, 256)  0           batch_normalization_28[0][0]     
__________________________________________________________________________________________________
conv2d_33 (Conv2D)              (None, 14, 14, 1024) 2360320     activation_28[0][0]              
__________________________________________________________________________________________________
batch_normalization_29 (BatchNo (None, 14, 14, 1024) 4096        conv2d_33[0][0]                  
__________________________________________________________________________________________________
add_9 (Add)                     (None, 14, 14, 1024) 0           batch_normalization_29[0][0]     
                                                                 activation_26[0][0]              
__________________________________________________________________________________________________
activation_29 (Activation)      (None, 14, 14, 1024) 0           add_9[0][0]                      
__________________________________________________________________________________________________
conv2d_34 (Conv2D)              (None, 14, 14, 256)  262400      activation_29[0][0]              
__________________________________________________________________________________________________
batch_normalization_30 (BatchNo (None, 14, 14, 256)  1024        conv2d_34[0][0]                  
__________________________________________________________________________________________________
activation_30 (Activation)      (None, 14, 14, 256)  0           batch_normalization_30[0][0]     
__________________________________________________________________________________________________
conv2d_35 (Conv2D)              (None, 14, 14, 256)  590080      activation_30[0][0]              
__________________________________________________________________________________________________
batch_normalization_31 (BatchNo (None, 14, 14, 256)  1024        conv2d_35[0][0]                  
__________________________________________________________________________________________________
activation_31 (Activation)      (None, 14, 14, 256)  0           batch_normalization_31[0][0]     
__________________________________________________________________________________________________
conv2d_36 (Conv2D)              (None, 14, 14, 1024) 2360320     activation_31[0][0]              
__________________________________________________________________________________________________
batch_normalization_32 (BatchNo (None, 14, 14, 1024) 4096        conv2d_36[0][0]                  
__________________________________________________________________________________________________
add_10 (Add)                    (None, 14, 14, 1024) 0           batch_normalization_32[0][0]     
                                                                 activation_29[0][0]              
__________________________________________________________________________________________________
activation_32 (Activation)      (None, 14, 14, 1024) 0           add_10[0][0]                     
__________________________________________________________________________________________________
conv2d_37 (Conv2D)              (None, 14, 14, 256)  262400      activation_32[0][0]              
__________________________________________________________________________________________________
batch_normalization_33 (BatchNo (None, 14, 14, 256)  1024        conv2d_37[0][0]                  
__________________________________________________________________________________________________
activation_33 (Activation)      (None, 14, 14, 256)  0           batch_normalization_33[0][0]     
__________________________________________________________________________________________________
conv2d_38 (Conv2D)              (None, 14, 14, 256)  590080      activation_33[0][0]              
__________________________________________________________________________________________________
batch_normalization_34 (BatchNo (None, 14, 14, 256)  1024        conv2d_38[0][0]                  
__________________________________________________________________________________________________
activation_34 (Activation)      (None, 14, 14, 256)  0           batch_normalization_34[0][0]     
__________________________________________________________________________________________________
conv2d_39 (Conv2D)              (None, 14, 14, 1024) 2360320     activation_34[0][0]              
__________________________________________________________________________________________________
batch_normalization_35 (BatchNo (None, 14, 14, 1024) 4096        conv2d_39[0][0]                  
__________________________________________________________________________________________________
add_11 (Add)                    (None, 14, 14, 1024) 0           batch_normalization_35[0][0]     
                                                                 activation_32[0][0]              
__________________________________________________________________________________________________
activation_35 (Activation)      (None, 14, 14, 1024) 0           add_11[0][0]                     
__________________________________________________________________________________________________
conv2d_40 (Conv2D)              (None, 14, 14, 256)  262400      activation_35[0][0]              
__________________________________________________________________________________________________
batch_normalization_36 (BatchNo (None, 14, 14, 256)  1024        conv2d_40[0][0]                  
__________________________________________________________________________________________________
activation_36 (Activation)      (None, 14, 14, 256)  0           batch_normalization_36[0][0]     
__________________________________________________________________________________________________
conv2d_41 (Conv2D)              (None, 14, 14, 256)  590080      activation_36[0][0]              
__________________________________________________________________________________________________
batch_normalization_37 (BatchNo (None, 14, 14, 256)  1024        conv2d_41[0][0]                  
__________________________________________________________________________________________________
activation_37 (Activation)      (None, 14, 14, 256)  0           batch_normalization_37[0][0]     
__________________________________________________________________________________________________
conv2d_42 (Conv2D)              (None, 14, 14, 1024) 2360320     activation_37[0][0]              
__________________________________________________________________________________________________
batch_normalization_38 (BatchNo (None, 14, 14, 1024) 4096        conv2d_42[0][0]                  
__________________________________________________________________________________________________
add_12 (Add)                    (None, 14, 14, 1024) 0           batch_normalization_38[0][0]     
                                                                 activation_35[0][0]              
__________________________________________________________________________________________________
activation_38 (Activation)      (None, 14, 14, 1024) 0           add_12[0][0]                     
__________________________________________________________________________________________________
conv2d_43 (Conv2D)              (None, 14, 14, 256)  262400      activation_38[0][0]              
__________________________________________________________________________________________________
batch_normalization_39 (BatchNo (None, 14, 14, 256)  1024        conv2d_43[0][0]                  
__________________________________________________________________________________________________
activation_39 (Activation)      (None, 14, 14, 256)  0           batch_normalization_39[0][0]     
__________________________________________________________________________________________________
conv2d_44 (Conv2D)              (None, 14, 14, 256)  590080      activation_39[0][0]              
__________________________________________________________________________________________________
batch_normalization_40 (BatchNo (None, 14, 14, 256)  1024        conv2d_44[0][0]                  
__________________________________________________________________________________________________
activation_40 (Activation)      (None, 14, 14, 256)  0           batch_normalization_40[0][0]     
__________________________________________________________________________________________________
conv2d_45 (Conv2D)              (None, 14, 14, 1024) 2360320     activation_40[0][0]              
__________________________________________________________________________________________________
batch_normalization_41 (BatchNo (None, 14, 14, 1024) 4096        conv2d_45[0][0]                  
__________________________________________________________________________________________________
add_13 (Add)                    (None, 14, 14, 1024) 0           batch_normalization_41[0][0]     
                                                                 activation_38[0][0]              
__________________________________________________________________________________________________
activation_41 (Activation)      (None, 14, 14, 1024) 0           add_13[0][0]                     
__________________________________________________________________________________________________
conv2d_46 (Conv2D)              (None, 14, 14, 256)  262400      activation_41[0][0]              
__________________________________________________________________________________________________
batch_normalization_42 (BatchNo (None, 14, 14, 256)  1024        conv2d_46[0][0]                  
__________________________________________________________________________________________________
activation_42 (Activation)      (None, 14, 14, 256)  0           batch_normalization_42[0][0]     
__________________________________________________________________________________________________
conv2d_47 (Conv2D)              (None, 14, 14, 256)  590080      activation_42[0][0]              
__________________________________________________________________________________________________
batch_normalization_43 (BatchNo (None, 14, 14, 256)  1024        conv2d_47[0][0]                  
__________________________________________________________________________________________________
activation_43 (Activation)      (None, 14, 14, 256)  0           batch_normalization_43[0][0]     
__________________________________________________________________________________________________
conv2d_48 (Conv2D)              (None, 14, 14, 1024) 2360320     activation_43[0][0]              
__________________________________________________________________________________________________
batch_normalization_44 (BatchNo (None, 14, 14, 1024) 4096        conv2d_48[0][0]                  
__________________________________________________________________________________________________
add_14 (Add)                    (None, 14, 14, 1024) 0           batch_normalization_44[0][0]     
                                                                 activation_41[0][0]              
__________________________________________________________________________________________________
activation_44 (Activation)      (None, 14, 14, 1024) 0           add_14[0][0]                     
__________________________________________________________________________________________________
conv2d_49 (Conv2D)              (None, 14, 14, 256)  262400      activation_44[0][0]              
__________________________________________________________________________________________________
batch_normalization_45 (BatchNo (None, 14, 14, 256)  1024        conv2d_49[0][0]                  
__________________________________________________________________________________________________
activation_45 (Activation)      (None, 14, 14, 256)  0           batch_normalization_45[0][0]     
__________________________________________________________________________________________________
conv2d_50 (Conv2D)              (None, 14, 14, 256)  590080      activation_45[0][0]              
__________________________________________________________________________________________________
batch_normalization_46 (BatchNo (None, 14, 14, 256)  1024        conv2d_50[0][0]                  
__________________________________________________________________________________________________
activation_46 (Activation)      (None, 14, 14, 256)  0           batch_normalization_46[0][0]     
__________________________________________________________________________________________________
conv2d_51 (Conv2D)              (None, 14, 14, 1024) 2360320     activation_46[0][0]              
__________________________________________________________________________________________________
batch_normalization_47 (BatchNo (None, 14, 14, 1024) 4096        conv2d_51[0][0]                  
__________________________________________________________________________________________________
add_15 (Add)                    (None, 14, 14, 1024) 0           batch_normalization_47[0][0]     
                                                                 activation_44[0][0]              
__________________________________________________________________________________________________
activation_47 (Activation)      (None, 14, 14, 1024) 0           add_15[0][0]                     
__________________________________________________________________________________________________
conv2d_52 (Conv2D)              (None, 14, 14, 256)  262400      activation_47[0][0]              
__________________________________________________________________________________________________
batch_normalization_48 (BatchNo (None, 14, 14, 256)  1024        conv2d_52[0][0]                  
__________________________________________________________________________________________________
activation_48 (Activation)      (None, 14, 14, 256)  0           batch_normalization_48[0][0]     
__________________________________________________________________________________________________
conv2d_53 (Conv2D)              (None, 14, 14, 256)  590080      activation_48[0][0]              
__________________________________________________________________________________________________
batch_normalization_49 (BatchNo (None, 14, 14, 256)  1024        conv2d_53[0][0]                  
__________________________________________________________________________________________________
activation_49 (Activation)      (None, 14, 14, 256)  0           batch_normalization_49[0][0]     
__________________________________________________________________________________________________
conv2d_54 (Conv2D)              (None, 14, 14, 1024) 2360320     activation_49[0][0]              
__________________________________________________________________________________________________
batch_normalization_50 (BatchNo (None, 14, 14, 1024) 4096        conv2d_54[0][0]                  
__________________________________________________________________________________________________
add_16 (Add)                    (None, 14, 14, 1024) 0           batch_normalization_50[0][0]     
                                                                 activation_47[0][0]              
__________________________________________________________________________________________________
activation_50 (Activation)      (None, 14, 14, 1024) 0           add_16[0][0]                     
__________________________________________________________________________________________________
conv2d_55 (Conv2D)              (None, 14, 14, 256)  262400      activation_50[0][0]              
__________________________________________________________________________________________________
batch_normalization_51 (BatchNo (None, 14, 14, 256)  1024        conv2d_55[0][0]                  
__________________________________________________________________________________________________
activation_51 (Activation)      (None, 14, 14, 256)  0           batch_normalization_51[0][0]     
__________________________________________________________________________________________________
conv2d_56 (Conv2D)              (None, 14, 14, 256)  590080      activation_51[0][0]              
__________________________________________________________________________________________________
batch_normalization_52 (BatchNo (None, 14, 14, 256)  1024        conv2d_56[0][0]                  
__________________________________________________________________________________________________
activation_52 (Activation)      (None, 14, 14, 256)  0           batch_normalization_52[0][0]     
__________________________________________________________________________________________________
conv2d_57 (Conv2D)              (None, 14, 14, 1024) 2360320     activation_52[0][0]              
__________________________________________________________________________________________________
batch_normalization_53 (BatchNo (None, 14, 14, 1024) 4096        conv2d_57[0][0]                  
__________________________________________________________________________________________________
add_17 (Add)                    (None, 14, 14, 1024) 0           batch_normalization_53[0][0]     
                                                                 activation_50[0][0]              
__________________________________________________________________________________________________
activation_53 (Activation)      (None, 14, 14, 1024) 0           add_17[0][0]                     
__________________________________________________________________________________________________
conv2d_58 (Conv2D)              (None, 14, 14, 256)  262400      activation_53[0][0]              
__________________________________________________________________________________________________
batch_normalization_54 (BatchNo (None, 14, 14, 256)  1024        conv2d_58[0][0]                  
__________________________________________________________________________________________________
activation_54 (Activation)      (None, 14, 14, 256)  0           batch_normalization_54[0][0]     
__________________________________________________________________________________________________
conv2d_59 (Conv2D)              (None, 14, 14, 256)  590080      activation_54[0][0]              
__________________________________________________________________________________________________
batch_normalization_55 (BatchNo (None, 14, 14, 256)  1024        conv2d_59[0][0]                  
__________________________________________________________________________________________________
activation_55 (Activation)      (None, 14, 14, 256)  0           batch_normalization_55[0][0]     
__________________________________________________________________________________________________
conv2d_60 (Conv2D)              (None, 14, 14, 1024) 2360320     activation_55[0][0]              
__________________________________________________________________________________________________
batch_normalization_56 (BatchNo (None, 14, 14, 1024) 4096        conv2d_60[0][0]                  
__________________________________________________________________________________________________
add_18 (Add)                    (None, 14, 14, 1024) 0           batch_normalization_56[0][0]     
                                                                 activation_53[0][0]              
__________________________________________________________________________________________________
activation_56 (Activation)      (None, 14, 14, 1024) 0           add_18[0][0]                     
__________________________________________________________________________________________________
conv2d_61 (Conv2D)              (None, 14, 14, 256)  262400      activation_56[0][0]              
__________________________________________________________________________________________________
batch_normalization_57 (BatchNo (None, 14, 14, 256)  1024        conv2d_61[0][0]                  
__________________________________________________________________________________________________
activation_57 (Activation)      (None, 14, 14, 256)  0           batch_normalization_57[0][0]     
__________________________________________________________________________________________________
conv2d_62 (Conv2D)              (None, 14, 14, 256)  590080      activation_57[0][0]              
__________________________________________________________________________________________________
batch_normalization_58 (BatchNo (None, 14, 14, 256)  1024        conv2d_62[0][0]                  
__________________________________________________________________________________________________
activation_58 (Activation)      (None, 14, 14, 256)  0           batch_normalization_58[0][0]     
__________________________________________________________________________________________________
conv2d_63 (Conv2D)              (None, 14, 14, 1024) 2360320     activation_58[0][0]              
__________________________________________________________________________________________________
batch_normalization_59 (BatchNo (None, 14, 14, 1024) 4096        conv2d_63[0][0]                  
__________________________________________________________________________________________________
add_19 (Add)                    (None, 14, 14, 1024) 0           batch_normalization_59[0][0]     
                                                                 activation_56[0][0]              
__________________________________________________________________________________________________
activation_59 (Activation)      (None, 14, 14, 1024) 0           add_19[0][0]                     
__________________________________________________________________________________________________
conv2d_64 (Conv2D)              (None, 14, 14, 256)  262400      activation_59[0][0]              
__________________________________________________________________________________________________
batch_normalization_60 (BatchNo (None, 14, 14, 256)  1024        conv2d_64[0][0]                  
__________________________________________________________________________________________________
activation_60 (Activation)      (None, 14, 14, 256)  0           batch_normalization_60[0][0]     
__________________________________________________________________________________________________
conv2d_65 (Conv2D)              (None, 14, 14, 256)  590080      activation_60[0][0]              
__________________________________________________________________________________________________
batch_normalization_61 (BatchNo (None, 14, 14, 256)  1024        conv2d_65[0][0]                  
__________________________________________________________________________________________________
activation_61 (Activation)      (None, 14, 14, 256)  0           batch_normalization_61[0][0]     
__________________________________________________________________________________________________
conv2d_66 (Conv2D)              (None, 14, 14, 1024) 2360320     activation_61[0][0]              
__________________________________________________________________________________________________
batch_normalization_62 (BatchNo (None, 14, 14, 1024) 4096        conv2d_66[0][0]                  
__________________________________________________________________________________________________
add_20 (Add)                    (None, 14, 14, 1024) 0           batch_normalization_62[0][0]     
                                                                 activation_59[0][0]              
__________________________________________________________________________________________________
activation_62 (Activation)      (None, 14, 14, 1024) 0           add_20[0][0]                     
__________________________________________________________________________________________________
conv2d_67 (Conv2D)              (None, 14, 14, 256)  262400      activation_62[0][0]              
__________________________________________________________________________________________________
batch_normalization_63 (BatchNo (None, 14, 14, 256)  1024        conv2d_67[0][0]                  
__________________________________________________________________________________________________
activation_63 (Activation)      (None, 14, 14, 256)  0           batch_normalization_63[0][0]     
__________________________________________________________________________________________________
conv2d_68 (Conv2D)              (None, 14, 14, 256)  590080      activation_63[0][0]              
__________________________________________________________________________________________________
batch_normalization_64 (BatchNo (None, 14, 14, 256)  1024        conv2d_68[0][0]                  
__________________________________________________________________________________________________
activation_64 (Activation)      (None, 14, 14, 256)  0           batch_normalization_64[0][0]     
__________________________________________________________________________________________________
conv2d_69 (Conv2D)              (None, 14, 14, 1024) 2360320     activation_64[0][0]              
__________________________________________________________________________________________________
batch_normalization_65 (BatchNo (None, 14, 14, 1024) 4096        conv2d_69[0][0]                  
__________________________________________________________________________________________________
add_21 (Add)                    (None, 14, 14, 1024) 0           batch_normalization_65[0][0]     
                                                                 activation_62[0][0]              
__________________________________________________________________________________________________
activation_65 (Activation)      (None, 14, 14, 1024) 0           add_21[0][0]                     
__________________________________________________________________________________________________
conv2d_70 (Conv2D)              (None, 14, 14, 256)  262400      activation_65[0][0]              
__________________________________________________________________________________________________
batch_normalization_66 (BatchNo (None, 14, 14, 256)  1024        conv2d_70[0][0]                  
__________________________________________________________________________________________________
activation_66 (Activation)      (None, 14, 14, 256)  0           batch_normalization_66[0][0]     
__________________________________________________________________________________________________
conv2d_71 (Conv2D)              (None, 14, 14, 256)  590080      activation_66[0][0]              
__________________________________________________________________________________________________
batch_normalization_67 (BatchNo (None, 14, 14, 256)  1024        conv2d_71[0][0]                  
__________________________________________________________________________________________________
activation_67 (Activation)      (None, 14, 14, 256)  0           batch_normalization_67[0][0]     
__________________________________________________________________________________________________
conv2d_72 (Conv2D)              (None, 14, 14, 1024) 2360320     activation_67[0][0]              
__________________________________________________________________________________________________
batch_normalization_68 (BatchNo (None, 14, 14, 1024) 4096        conv2d_72[0][0]                  
__________________________________________________________________________________________________
add_22 (Add)                    (None, 14, 14, 1024) 0           batch_normalization_68[0][0]     
                                                                 activation_65[0][0]              
__________________________________________________________________________________________________
activation_68 (Activation)      (None, 14, 14, 1024) 0           add_22[0][0]                     
__________________________________________________________________________________________________
conv2d_73 (Conv2D)              (None, 14, 14, 256)  262400      activation_68[0][0]              
__________________________________________________________________________________________________
batch_normalization_69 (BatchNo (None, 14, 14, 256)  1024        conv2d_73[0][0]                  
__________________________________________________________________________________________________
activation_69 (Activation)      (None, 14, 14, 256)  0           batch_normalization_69[0][0]     
__________________________________________________________________________________________________
conv2d_74 (Conv2D)              (None, 14, 14, 256)  590080      activation_69[0][0]              
__________________________________________________________________________________________________
batch_normalization_70 (BatchNo (None, 14, 14, 256)  1024        conv2d_74[0][0]                  
__________________________________________________________________________________________________
activation_70 (Activation)      (None, 14, 14, 256)  0           batch_normalization_70[0][0]     
__________________________________________________________________________________________________
conv2d_75 (Conv2D)              (None, 14, 14, 1024) 2360320     activation_70[0][0]              
__________________________________________________________________________________________________
batch_normalization_71 (BatchNo (None, 14, 14, 1024) 4096        conv2d_75[0][0]                  
__________________________________________________________________________________________________
add_23 (Add)                    (None, 14, 14, 1024) 0           batch_normalization_71[0][0]     
                                                                 activation_68[0][0]              
__________________________________________________________________________________________________
activation_71 (Activation)      (None, 14, 14, 1024) 0           add_23[0][0]                     
__________________________________________________________________________________________________
conv2d_76 (Conv2D)              (None, 14, 14, 256)  262400      activation_71[0][0]              
__________________________________________________________________________________________________
batch_normalization_72 (BatchNo (None, 14, 14, 256)  1024        conv2d_76[0][0]                  
__________________________________________________________________________________________________
activation_72 (Activation)      (None, 14, 14, 256)  0           batch_normalization_72[0][0]     
__________________________________________________________________________________________________
conv2d_77 (Conv2D)              (None, 14, 14, 256)  590080      activation_72[0][0]              
__________________________________________________________________________________________________
batch_normalization_73 (BatchNo (None, 14, 14, 256)  1024        conv2d_77[0][0]                  
__________________________________________________________________________________________________
activation_73 (Activation)      (None, 14, 14, 256)  0           batch_normalization_73[0][0]     
__________________________________________________________________________________________________
conv2d_78 (Conv2D)              (None, 14, 14, 1024) 2360320     activation_73[0][0]              
__________________________________________________________________________________________________
batch_normalization_74 (BatchNo (None, 14, 14, 1024) 4096        conv2d_78[0][0]                  
__________________________________________________________________________________________________
add_24 (Add)                    (None, 14, 14, 1024) 0           batch_normalization_74[0][0]     
                                                                 activation_71[0][0]              
__________________________________________________________________________________________________
activation_74 (Activation)      (None, 14, 14, 1024) 0           add_24[0][0]                     
__________________________________________________________________________________________________
conv2d_79 (Conv2D)              (None, 14, 14, 256)  262400      activation_74[0][0]              
__________________________________________________________________________________________________
batch_normalization_75 (BatchNo (None, 14, 14, 256)  1024        conv2d_79[0][0]                  
__________________________________________________________________________________________________
activation_75 (Activation)      (None, 14, 14, 256)  0           batch_normalization_75[0][0]     
__________________________________________________________________________________________________
conv2d_80 (Conv2D)              (None, 14, 14, 256)  590080      activation_75[0][0]              
__________________________________________________________________________________________________
batch_normalization_76 (BatchNo (None, 14, 14, 256)  1024        conv2d_80[0][0]                  
__________________________________________________________________________________________________
activation_76 (Activation)      (None, 14, 14, 256)  0           batch_normalization_76[0][0]     
__________________________________________________________________________________________________
conv2d_81 (Conv2D)              (None, 14, 14, 1024) 2360320     activation_76[0][0]              
__________________________________________________________________________________________________
batch_normalization_77 (BatchNo (None, 14, 14, 1024) 4096        conv2d_81[0][0]                  
__________________________________________________________________________________________________
add_25 (Add)                    (None, 14, 14, 1024) 0           batch_normalization_77[0][0]     
                                                                 activation_74[0][0]              
__________________________________________________________________________________________________
activation_77 (Activation)      (None, 14, 14, 1024) 0           add_25[0][0]                     
__________________________________________________________________________________________________
conv2d_82 (Conv2D)              (None, 14, 14, 256)  262400      activation_77[0][0]              
__________________________________________________________________________________________________
batch_normalization_78 (BatchNo (None, 14, 14, 256)  1024        conv2d_82[0][0]                  
__________________________________________________________________________________________________
activation_78 (Activation)      (None, 14, 14, 256)  0           batch_normalization_78[0][0]     
__________________________________________________________________________________________________
conv2d_83 (Conv2D)              (None, 14, 14, 256)  590080      activation_78[0][0]              
__________________________________________________________________________________________________
batch_normalization_79 (BatchNo (None, 14, 14, 256)  1024        conv2d_83[0][0]                  
__________________________________________________________________________________________________
activation_79 (Activation)      (None, 14, 14, 256)  0           batch_normalization_79[0][0]     
__________________________________________________________________________________________________
conv2d_84 (Conv2D)              (None, 14, 14, 1024) 2360320     activation_79[0][0]              
__________________________________________________________________________________________________
batch_normalization_80 (BatchNo (None, 14, 14, 1024) 4096        conv2d_84[0][0]                  
__________________________________________________________________________________________________
add_26 (Add)                    (None, 14, 14, 1024) 0           batch_normalization_80[0][0]     
                                                                 activation_77[0][0]              
__________________________________________________________________________________________________
activation_80 (Activation)      (None, 14, 14, 1024) 0           add_26[0][0]                     
__________________________________________________________________________________________________
conv2d_85 (Conv2D)              (None, 14, 14, 256)  262400      activation_80[0][0]              
__________________________________________________________________________________________________
batch_normalization_81 (BatchNo (None, 14, 14, 256)  1024        conv2d_85[0][0]                  
__________________________________________________________________________________________________
activation_81 (Activation)      (None, 14, 14, 256)  0           batch_normalization_81[0][0]     
__________________________________________________________________________________________________
conv2d_86 (Conv2D)              (None, 14, 14, 256)  590080      activation_81[0][0]              
__________________________________________________________________________________________________
batch_normalization_82 (BatchNo (None, 14, 14, 256)  1024        conv2d_86[0][0]                  
__________________________________________________________________________________________________
activation_82 (Activation)      (None, 14, 14, 256)  0           batch_normalization_82[0][0]     
__________________________________________________________________________________________________
conv2d_87 (Conv2D)              (None, 14, 14, 1024) 2360320     activation_82[0][0]              
__________________________________________________________________________________________________
batch_normalization_83 (BatchNo (None, 14, 14, 1024) 4096        conv2d_87[0][0]                  
__________________________________________________________________________________________________
add_27 (Add)                    (None, 14, 14, 1024) 0           batch_normalization_83[0][0]     
                                                                 activation_80[0][0]              
__________________________________________________________________________________________________
activation_83 (Activation)      (None, 14, 14, 1024) 0           add_27[0][0]                     
__________________________________________________________________________________________________
conv2d_88 (Conv2D)              (None, 14, 14, 256)  262400      activation_83[0][0]              
__________________________________________________________________________________________________
batch_normalization_84 (BatchNo (None, 14, 14, 256)  1024        conv2d_88[0][0]                  
__________________________________________________________________________________________________
activation_84 (Activation)      (None, 14, 14, 256)  0           batch_normalization_84[0][0]     
__________________________________________________________________________________________________
conv2d_89 (Conv2D)              (None, 14, 14, 256)  590080      activation_84[0][0]              
__________________________________________________________________________________________________
batch_normalization_85 (BatchNo (None, 14, 14, 256)  1024        conv2d_89[0][0]                  
__________________________________________________________________________________________________
activation_85 (Activation)      (None, 14, 14, 256)  0           batch_normalization_85[0][0]     
__________________________________________________________________________________________________
conv2d_90 (Conv2D)              (None, 14, 14, 1024) 2360320     activation_85[0][0]              
__________________________________________________________________________________________________
batch_normalization_86 (BatchNo (None, 14, 14, 1024) 4096        conv2d_90[0][0]                  
__________________________________________________________________________________________________
add_28 (Add)                    (None, 14, 14, 1024) 0           batch_normalization_86[0][0]     
                                                                 activation_83[0][0]              
__________________________________________________________________________________________________
activation_86 (Activation)      (None, 14, 14, 1024) 0           add_28[0][0]                     
__________________________________________________________________________________________________
conv2d_91 (Conv2D)              (None, 14, 14, 256)  262400      activation_86[0][0]              
__________________________________________________________________________________________________
batch_normalization_87 (BatchNo (None, 14, 14, 256)  1024        conv2d_91[0][0]                  
__________________________________________________________________________________________________
activation_87 (Activation)      (None, 14, 14, 256)  0           batch_normalization_87[0][0]     
__________________________________________________________________________________________________
conv2d_92 (Conv2D)              (None, 14, 14, 256)  590080      activation_87[0][0]              
__________________________________________________________________________________________________
batch_normalization_88 (BatchNo (None, 14, 14, 256)  1024        conv2d_92[0][0]                  
__________________________________________________________________________________________________
activation_88 (Activation)      (None, 14, 14, 256)  0           batch_normalization_88[0][0]     
__________________________________________________________________________________________________
conv2d_93 (Conv2D)              (None, 14, 14, 1024) 2360320     activation_88[0][0]              
__________________________________________________________________________________________________
batch_normalization_89 (BatchNo (None, 14, 14, 1024) 4096        conv2d_93[0][0]                  
__________________________________________________________________________________________________
add_29 (Add)                    (None, 14, 14, 1024) 0           batch_normalization_89[0][0]     
                                                                 activation_86[0][0]              
__________________________________________________________________________________________________
activation_89 (Activation)      (None, 14, 14, 1024) 0           add_29[0][0]                     
__________________________________________________________________________________________________
conv2d_94 (Conv2D)              (None, 7, 7, 512)    524800      activation_89[0][0]              
__________________________________________________________________________________________________
batch_normalization_90 (BatchNo (None, 7, 7, 512)    2048        conv2d_94[0][0]                  
__________________________________________________________________________________________________
activation_90 (Activation)      (None, 7, 7, 512)    0           batch_normalization_90[0][0]     
__________________________________________________________________________________________________
conv2d_95 (Conv2D)              (None, 7, 7, 512)    2359808     activation_90[0][0]              
__________________________________________________________________________________________________
batch_normalization_91 (BatchNo (None, 7, 7, 512)    2048        conv2d_95[0][0]                  
__________________________________________________________________________________________________
activation_91 (Activation)      (None, 7, 7, 512)    0           batch_normalization_91[0][0]     
__________________________________________________________________________________________________
conv2d_96 (Conv2D)              (None, 7, 7, 2048)   9439232     activation_91[0][0]              
__________________________________________________________________________________________________
batch_normalization_92 (BatchNo (None, 7, 7, 2048)   8192        conv2d_96[0][0]                  
__________________________________________________________________________________________________2021-01-13 11:22:43.594188: W tensorflow/core/framework/cpu_allocator_impl.cc:81] Allocation of 18063360000 exceeds 10% of free system memory.
2021-01-13 11:22:51.602854: W tensorflow/core/framework/cpu_allocator_impl.cc:81] Allocation of 18063360000 exceeds 10% of free system memory.
WARNING:tensorflow:From /home/clt_dc/anaconda3/envs/tf2/lib/python3.7/site-packages/tensorflow/python/data/ops/multi_device_iterator_ops.py:601: get_next_as_optional (from tensorflow.python.data.ops.iterator_ops) is deprecated and will be removed in a future version.
Instructions for updating:
Use `tf.data.Iterator.get_next_as_optional()` instead.
2021-01-13 11:25:23.929774: I tensorflow/stream_executor/platform/default/dso_loader.cc:48] Successfully opened dynamic library libcublas.so.10
2021-01-13 11:25:25.625175: I tensorflow/stream_executor/platform/default/dso_loader.cc:48] Successfully opened dynamic library libcudnn.so.7

conv2d_97 (Conv2D)              (None, 7, 7, 2048)   2099200     activation_89[0][0]              
__________________________________________________________________________________________________
add_30 (Add)                    (None, 7, 7, 2048)   0           batch_normalization_92[0][0]     
                                                                 conv2d_97[0][0]                  
__________________________________________________________________________________________________
activation_92 (Activation)      (None, 7, 7, 2048)   0           add_30[0][0]                     
__________________________________________________________________________________________________
conv2d_98 (Conv2D)              (None, 7, 7, 512)    1049088     activation_92[0][0]              
__________________________________________________________________________________________________
batch_normalization_93 (BatchNo (None, 7, 7, 512)    2048        conv2d_98[0][0]                  
__________________________________________________________________________________________________
activation_93 (Activation)      (None, 7, 7, 512)    0           batch_normalization_93[0][0]     
__________________________________________________________________________________________________
conv2d_99 (Conv2D)              (None, 7, 7, 512)    2359808     activation_93[0][0]              
__________________________________________________________________________________________________
batch_normalization_94 (BatchNo (None, 7, 7, 512)    2048        conv2d_99[0][0]                  
__________________________________________________________________________________________________
activation_94 (Activation)      (None, 7, 7, 512)    0           batch_normalization_94[0][0]     
__________________________________________________________________________________________________
conv2d_100 (Conv2D)             (None, 7, 7, 2048)   9439232     activation_94[0][0]              
__________________________________________________________________________________________________
batch_normalization_95 (BatchNo (None, 7, 7, 2048)   8192        conv2d_100[0][0]                 
__________________________________________________________________________________________________
add_31 (Add)                    (None, 7, 7, 2048)   0           batch_normalization_95[0][0]     
                                                                 activation_92[0][0]              
__________________________________________________________________________________________________
activation_95 (Activation)      (None, 7, 7, 2048)   0           add_31[0][0]                     
__________________________________________________________________________________________________
conv2d_101 (Conv2D)             (None, 7, 7, 512)    1049088     activation_95[0][0]              
__________________________________________________________________________________________________
batch_normalization_96 (BatchNo (None, 7, 7, 512)    2048        conv2d_101[0][0]                 
__________________________________________________________________________________________________
activation_96 (Activation)      (None, 7, 7, 512)    0           batch_normalization_96[0][0]     
__________________________________________________________________________________________________
conv2d_102 (Conv2D)             (None, 7, 7, 512)    2359808     activation_96[0][0]              
__________________________________________________________________________________________________
batch_normalization_97 (BatchNo (None, 7, 7, 512)    2048        conv2d_102[0][0]                 
__________________________________________________________________________________________________
activation_97 (Activation)      (None, 7, 7, 512)    0           batch_normalization_97[0][0]     
__________________________________________________________________________________________________
conv2d_103 (Conv2D)             (None, 7, 7, 2048)   9439232     activation_97[0][0]              
__________________________________________________________________________________________________
batch_normalization_98 (BatchNo (None, 7, 7, 2048)   8192        conv2d_103[0][0]                 
__________________________________________________________________________________________________
add_32 (Add)                    (None, 7, 7, 2048)   0           batch_normalization_98[0][0]     
                                                                 activation_95[0][0]              
__________________________________________________________________________________________________
activation_98 (Activation)      (None, 7, 7, 2048)   0           add_32[0][0]                     
__________________________________________________________________________________________________
global_average_pooling2d (Globa (None, 2048)         0           activation_98[0][0]              
__________________________________________________________________________________________________
flatten (Flatten)               (None, 2048)         0           global_average_pooling2d[0][0]   
__________________________________________________________________________________________________
dropout (Dropout)               (None, 2048)         0           flatten[0][0]                    
__________________________________________________________________________________________________
dense (Dense)                   (None, 6)            12294       dropout[0][0]                    
==================================================================================================
Total params: 118,545,542
Trainable params: 118,448,006
Non-trainable params: 97,536
__________________________________________________________________________________________________
d_class_weights= {0: 1.0, 1: 1.0, 2: 1.0, 3: 1.0, 4: 1.0, 5: 1.0}
Epoch 1/30
…
